web/assets/assets/model.tflite (tflite, 49196 bytes, 8 tensors)

sequential/dense/MatMul/ReadVariableOp/transpose f4 [64, 132]
000000 43 a3 e5 3d 39 75 f3 3c 75 90 49 3d 82 00 a5 bd
       0.1121278 0.029718982 0.04921003 -0.080567375
000010 b4 2a 82 bd d3 f0 eb bd 65 fd a8 bd 0e 69 09 3e
       -0.06355801 -0.11520543 -0.08251456 0.13418981
000020 2a 16 6a 3e 94 0e 6c 3e c8 be 17 3e c9 cb 7c 3e
       0.22860017 0.23052436 0.14818871 0.24687113
000030 0b 2e 20 3e 6e 25 3b 3d d6 6c a4 bd 1c 5c 55 bc
       0.15642564 0.045689993 -0.08028571 -0.013022449
000040 38 af 0f 3d 5c d2 47 3e 63 b9 b5 bd 83 51 96 3e
       0.03507921 0.1951384 -0.0887325 0.29359064
000050 bd 8d 02 bd bc 06 a5 bd bd b4 8d 3e 4a c6 d2 bd
       -0.031873453 -0.08057925 0.27676955 -0.10291727
000060 7a f6 3f bc 94 57 8f 3e fe ca 68 3e 29 34 64 bd
       -0.011716479 0.27996504 0.22733685 -0.055713806
000070 b3 54 fd 3d 33 a6 24 3e 3d 84 22 3e 08 af 9c 3e
       0.12369671 0.16079025 0.15870757 0.30602288
000080 41 fb ea 3d 02 8e 3d 3e 66 23 0b 3d 3c 6f 28 be
       0.11473704 0.18511203 0.033969305 -0.16448683
000090 04 af f4 3d 95 4a 53 be a7 e9 b8 bd 24 bf 6f 3e
       0.11947444 -0.2063392 -0.09028941 0.23412758
0000a0 04 71 5a 3e 05 e4 39 be 37 e4 e5 bd 7b cb 85 be
       0.21332175 -0.18153389 -0.11225169 -0.26131806
0000b0 e4 c7 27 3e f6 c2 ac 3d 5f 97 5b 3e 1e 70 54 be
       0.16384846 0.08435623 0.21444462 -0.20745894
0000c0 9a ae 11 be a8 16 94 3e 97 e8 a0 be b4 3b d9 bd
       -0.14226761 0.28923535 -0.31427452 -0.106070906
0000d0 ac c6 21 be d8 f8 ca bc 71 58 2a be 60 29 0c 3c
       -0.15798444 -0.024776861 -0.166353 0.008554786
0000e0 6d b4 91 3e d4 8d 37 bd 02 e8 e6 bc 3b 26 d9 bc
       0.28457966 -0.044812992 -0.028186802 -0.026507488
0000f0 92 04 d9 bd 84 38 d0 3d 6d f8 8c bd 62 d9 56 bc
       -0.10596575 0.101670295 -0.06883321 -0.013113352
000100 1b bf 0b be 57 d5 c1 bc 8c dc aa 3d 64 c2 71 be
       -0.1364712 -0.023661299 0.08342847 -0.2360931
000110 48 bd 11 bd de 01 f5 bb 3f 21 da 3c 08 00 94 3c
       -0.035580903 -0.007477029 0.026627181 0.018066421
000120 c8 38 a9 3d 9e 48 cb bd 6b 9b 4f 3e 55 6e 18 3e
       0.08262783 -0.0992596 0.20274131 0.14885838
000130 87 80 2b 3e 87 ab 2c 3e 0e 68 19 be 36 f8 ec 3d
       0.16748248 0.16862307 -0.149811 0.1157078
000140 f2 b9 63 be 84 c7 42 3e e4 a6 2e be 5a e5 98 bd
       -0.22238901 0.19021422 -0.17055851 -0.0746562
000150 b7 a0 4d 3c 5e 74 7a 3d f2 12 a5 3e 7e fa 80 3e
       0.012550524 0.061146133 0.32241017 0.2519111
000160 d0 54 63 bd c4 58 f8 bd ef 8d b1 bc 78 0c 90 3d
       -0.055500805 -0.12126306 -0.021674125 0.07033628
000170 54 7a 82 3e 00 79 93 3e 3d e5 47 3e 08 b6 4a 3e
       0.25483954 0.28803253 0.19521041 0.19796002
000180 01 f6 93 3e 29 61 d0 be f4 c8 a9 3e 08 c7 1f be
       0.28898624 -0.40699127 0.33161128 -0.15603268
000190 c3 55 67 3e e6 0d a8 bd 95 e5 3e 3d 18 97 0d be
       0.22591309 -0.08205776 0.046605665 -0.13827169
0001a0 76 db e4 3c 93 16 9f bd aa d0 16 be 46 5b 8f be
       0.027936678 -0.077679776 -0.14728037 -0.27999324
0001b0 14 03 c2 bd e7 4d 0b 3e 76 aa 27 3e 4b ee 03 bd
       -0.09473243 0.13603936 0.1637362 -0.032209676
0001c0 16 04 62 be a5 3b 59 3e 3c 36 b9 3d c8 e2 07 3e
       -0.22071871 0.21214159 0.090435475 0.13270104
0001d0 bd ad e2 3c 9a 72 49 3e 80 87 d7 bd 17 12 21 3c
       0.027670735 0.19672623 -0.105238914 0.009830973
0001e0 bd 9e 5e 3e 26 00 3b be d0 ea 38 3e b5 a1 39 3d
       0.21740241 -0.18261775 0.18058324 0.04532023
0001f0 72 b8 ce 3d 90 3d 12 be a0 cf e6 bc 5d 8c d2 bd
       0.10093774 -0.14281297 -0.028175175 -0.102806784
000200 6b 5e ce bd 30 9b 0a 3e 8b c9 07 bd c0 5b 78 3e
       -0.100766025 0.13535762 -0.03315119 0.2425375
000210 52 da 03 be 81 dc cb bc 92 b3 23 be c1 48 42 3e
       -0.12876251 -0.024885418 -0.1598647 0.18973066
000220 5c 8a aa 3e 98 67 21 3e e2 f3 bf 3d 07 d5 84 3e
       0.33308685 0.15762174 0.09372689 0.25943777
000230 3a a8 22 3e a7 39 63 3e 17 71 5b bd 71 9c 8b 3d
       0.15884486 0.22189961 -0.053574648 0.06816948
000240 e8 b8 8d 3c 43 23 44 bb f3 80 1c bd 26 9e 9e bd
       0.017300084 -0.0029928244 -0.038208913 -0.07745008
000250 77 36 08 3e 93 38 4a be 9c a2 95 3c 48 16 8a be
       0.13302027 -0.19748144 0.018266015 -0.26970124
000260 a2 c0 75 bd f8 17 b9 3e 87 7b b6 bd a2 00 6f bd
       -0.059998162 0.361511 -0.0891028 -0.058350213
000270 16 10 2d 3e fb 86 a2 3d 6a 1b b4 3e 9b 83 b1 3d
       0.16900668 0.07935902 0.35177165 0.0866768
000280 ea 69 6d bd c6 f6 c4 3e 42 f2 89 be 26 89 40 3e
       -0.057962336 0.38469523 -0.2694264 0.18802318
000290 a2 0a 18 be 27 28 27 bd 5a f1 92 be 18 09 2d bd
       -0.14847806 -0.040809777 -0.28699762 -0.042245
0002a0 81 2f 9a bd 59 29 2c bd ca 58 55 3e 34 da 88 3c
       -0.07528592 -0.04203162 0.20834652 0.01670561
0002b0 88 30 72 3e 25 2f 5c 3e 0d e8 a1 3d c6 97 c8 3c
       0.23651326 0.21502359 0.07905588 0.024486434
0002c0 a5 24 5b 3e dc 5f ed bd 9c d2 1c be f0 af 83 3e
       0.21400698 -0.11590549 -0.15314716 0.25720167
0002d0 e4 57 48 bd 9a c8 f9 bd 83 43 69 be e7 aa f5 bc
       -0.048911944 -0.12196465 -0.2277966 -0.02998872
0002e0 a5 20 09 be 9f 68 82 be b7 4d a2 bd 20 ed 3d bd
       -0.13391359 -0.25470445 -0.07924979 -0.04636872
0002f0 4b d7 0c bc c6 63 12 3e 98 d7 32 3d 1e 98 13 3e
       -0.008596252 0.14295873 0.043662637 0.14413497
000300 24 51 8f 3e 8d 6b be 3e 9d de 43 3e 75 0b 9c 3e
       0.27991593 0.3719143 0.19127889 0.3047749
000310 c7 d3 dc 3d 48 cf ca 3c f0 07 df 3c 49 49 41 be
       0.10782581 0.024757043 0.027225465 -0.18875612
000320 0a db 70 bd 4a c6 26 be a7 15 0a be c6 0b 28 bc
       -0.058802642 -0.16286579 -0.13484822 -0.010256713
000330 3f 59 b5 3d e8 3d da 3a 48 dc 5c be d9 d6 dc bd
       0.08854913 0.001665053 -0.21568406 -0.107831664
000340 03 d6 3d be f2 53 e2 3d 2a 7e 94 3e 1c ca b9 3e
       -0.1853867 0.110511675 0.29002506 0.3628701
000350 e2 46 ba 3d 9e c6 75 3e 43 51 23 3e 5f 9e 5a 3e
       0.09095551 0.24001548 0.15948968 0.21349476
000360 7c a5 a0 be 59 33 fb 3d d7 ab 38 be 2a 14 aa 3e
       -0.31376255 0.12265653 -0.18034302 0.3321851
000370 1e 94 cb bd ff fb 32 3e 5c e7 9a 3e 58 9d 8a 3e
       -0.099403605 0.17478941 0.30254638 0.2707317
000380 44 0e ed bd 8b 5d 6f be f1 d4 0e be b8 0f 32 be
       -0.115749866 -0.23375528 -0.13948418 -0.17388809
000390 5e 86 5c be a8 85 d9 be c0 14 1c 3e 42 04 a6 3e
       -0.21535632 -0.42484784 0.1524229 0.32425123
0003a0 73 64 90 bd 5f 11 91 bd bb 62 9d bd 87 cb bd 3e
       -0.07050409 -0.070833914 -0.07684847 0.37069342
0003b0 d4 ed 6e 3d fe 19 aa bd d2 d0 50 3c 49 54 d7 bd
       0.05833228 -0.08305739 0.012745099 -0.10514123
0003c0 56 35 05 bc 88 54 58 3d 73 0e a0 bd 18 10 40 3e
       -0.008130392 0.05281499 -0.07815256 0.1875614
0003d0 30 f8 88 3e 27 96 85 3e 7c 77 99 3e 19 f6 2d be
       0.26751852 0.2609112 0.29973972 -0.1698841
0003e0 d3 ab d5 bd cf f7 9b 3c 8c 0a 0f be 07 69 14 be
       -0.104331635 0.019039063 -0.13968867 -0.1449319
0003f0 ef 51 9d 3c e5 ee bc 3e e9 ee 1d bd 43 91 80 bd
       0.019204108 0.36901012 -0.03855792 -0.062777065

sequential/dense/MatMul_bias f4 [64]
000000 fc 8e 90 3e 4d 8d a0 3e a6 a1 1a 3e ad ec 39 3e
       0.28234088 0.31357804 0.15100726 0.18156691
000010 51 e6 89 3e 7f f7 93 3e 3e 87 40 3e 76 7c 66 3e
       0.2693353 0.28899762 0.18801591 0.22508416
000020 86 01 80 3e 8a 8e 80 3e 12 41 62 3e be e8 41 3e
       0.25001162 0.2510875 0.22095135 0.1893644
000030 16 d6 29 3e 3b fb b4 3e e6 ee 33 3e cd e6 75 3e
       0.16585574 0.35347924 0.17571601 0.24013825
000040 61 93 70 3e 30 e4 81 3e a3 1d 8a 3e 43 95 e9 3d
       0.2349372 0.25369406 0.26975736 0.114054225
000050 4c 55 78 3e a7 b8 1f 3e a1 a0 53 3e 91 8b 8c 3e
       0.24251288 0.15597783 0.20666744 0.2745023
000060 68 48 77 3e 60 83 58 3e 9c 57 7b 3e 40 74 87 3e
       0.24148715 0.21143866 0.24545139 0.2645588
000070 4f 4c 64 3e b2 b0 0f 3e 0c f5 5d 3e 3b 7a 74 3e
       0.22294734 0.14032248 0.21675509 0.23874752
000080 7a 1c 65 3e 78 83 df 3d ef ca 85 3e 52 0d 7d 3e
       0.22374144 0.109137475 0.2613139 0.24712113
000090 90 d6 62 3e ef 41 83 3e 22 cd 45 3e 03 b4 8f 3e
       0.22152162 0.2563624 0.19316533 0.28067026
0000a0 11 65 80 3e 58 80 82 3e 06 2a 6a 3e 33 6c 7e 3e
       0.25077108 0.25488544 0.22867593 0.24845962
0000b0 3c 7a 94 3e 20 21 70 3e 3c 59 05 3e 46 ba 91 3e
       0.28999507 0.23450136 0.13022321 0.28462428
0000c0 aa 03 65 3e 8c a3 3f 3e c1 e0 50 3e 75 6e e7 3d
       0.22364679 0.18714732 0.20398237 0.11300365
0000d0 1d 4e 21 3e 1c 4e 53 3e 22 62 65 3e d7 f2 7f 3e
       0.15752454 0.20635265 0.22400716 0.2499498
0000e0 1f c9 28 3e 7d d2 54 3e 5b 24 8c 3e cd 71 57 3e
       0.16482972 0.2078342 0.27371487 0.21039505
0000f0 86 24 99 3e 8c 1b a2 3e 63 e0 2b 3e 2f f1 50 3e
       0.29910678 0.31661642 0.16784815 0.20404504

sequential/dense_1/MatMul/ReadVariableOp/transpose f4 [32, 64]
000000 47 98 a1 3e 84 f1 fa be 4f 43 70 3e 51 6e 18 3e
       0.3156149 -0.49012387 0.23463176 0.14885832
000010 4d 0b 78 bd 75 41 cd 3d d3 ca 1a be 8e 27 a3 3e
       -0.060557652 0.100222506 -0.15116434 0.31866115
000020 92 c2 fc bd 5f 69 d7 bd aa 6c 42 3d 53 a7 b8 3e
       -0.12341799 -0.10518145 0.04746691 0.36065158
000030 ec 26 97 3e fb 6f 92 3e 36 17 f4 3c a5 53 10 be
       0.29521883 0.2860106 0.029796224 -0.14094408
000040 ad 32 76 be bc 5f 8f be e7 8f 25 be 98 27 dc 3d
       -0.24042769 -0.28002727 -0.16168176 0.107497394
000050 7e cf b4 3d 26 a2 91 3e 2f 41 38 be 84 6f 97 be
       0.088286385 0.28444022 -0.17993616 -0.29577267
000060 48 99 dc bc 82 f2 a7 3d e9 ff 8e 3c 1b 04 70 3d
       -0.026928559 0.082005516 0.017456012 0.058597665
000070 cb 39 a7 3d 45 e6 6c 3e 97 ba 9d 3d f1 af dd be
       0.0816532 0.23134716 0.07701605 -0.43298295
000080 ab 2f af 3e ce 3c a0 bd 62 7b b0 bd b7 16 56 be
       0.34216055 -0.078240976 -0.086172834 -0.20907103
000090 c4 4b c1 be 85 90 4d 3e da f4 14 3e d1 da e6 3d
       -0.37753117 0.20074661 0.14546528 0.11272205
0000a0 06 2d 9a bc 51 33 95 3e ee 58 38 3e d3 8d f7 be
       -0.018820297 0.29140714 0.18002674 -0.4835039
0000b0 c5 a2 c3 3e fc c2 f5 3d ee a7 96 3e f2 c1 76 bc
       0.3821012 0.12000081 0.29424995 -0.015060889
0000c0 94 9a 17 be 4d 0f f3 3e 6f 29 e9 bd 00 c3 cb 3e
       -0.1480506 0.4747261 -0.11384856 0.3979721
0000d0 8a bd 86 3d fd de 94 ba 51 5a 75 3e 2f 91 34 3d
       0.065791205 -0.001135796 0.23960234 0.04408377
0000e0 8e ff 36 3e 55 95 8f 3d 86 ef d4 3e f6 2a 6a bc
       0.17870924 0.07010905 0.41588992 -0.014292469
0000f0 ec f4 84 be aa 7f fe 3e bf 46 20 3e fe 44 b1 bc
       -0.2596811 0.49706775 0.15651987 -0.021639343
000100 66 d9 2b be c4 c4 bd 3d 39 5e d4 3e 5c 82 d5 3e
       -0.1678215 0.09266046 0.41478136 0.4170102
000110 84 d3 ce be 7b 3a b4 3e 56 ec 87 be c6 8c 60 3e
       -0.4039575 0.35200867 -0.26547498 0.21928701
000120 7d a1 f6 3e b3 71 99 3e 2a 64 e3 bd e5 81 9b be
       0.4817008 0.29969558 -0.11103089 -0.3037254
000130 3e 37 95 bd 06 1b 2b be 20 c5 9e 3e f6 7f 49 bd
       -0.07285927 -0.16709527 0.3100977 -0.0491943
000140 61 9d ea 3c 6c 0f 5d be eb d9 44 be 5c 7b 50 be
       0.028639497 -0.21587914 -0.19223754 -0.20359558
000150 f7 6f 78 3e a7 26 d0 3c 9f ec db 3e a3 fe f0 3e
       0.24261461 0.025409056 0.42953965 0.47069272
000160 a0 49 86 3e 07 2a 53 3e fe f5 d0 be ca 8b 56 3d
       0.26228046 0.20621501 -0.40812677 0.052379407
000170 9d b8 bd be cf 6c 9d 3e d9 f1 58 3e 49 bd cc 3e
       -0.3705491 0.30747077 0.21186008 0.39988163
000180 c0 30 b0 3e 06 ee a0 be 37 8a cc 3e 5f 14 de be
       0.34412193 -0.31431597 0.399492 -0.43374917
000190 9e 1c 57 be 5a cc a0 3e 99 84 84 bd 87 8a a9 bd
       -0.2100701 0.31405908 -0.064706035 -0.08278375
0001a0 5a 4c a0 be c3 be 21 3e e1 50 a0 be c8 95 da 3e
       -0.31308252 0.15795426 -0.31311706 0.426924
0001b0 21 1e e8 3e bc 5d c3 bd 04 f7 fc 3d 36 e6 40 3e
       0.45335487 -0.09539363 0.12351802 0.18837819
0001c0 9c 69 81 be 76 b6 94 bc d1 02 65 bc 06 f1 01 3d
       -0.25275886 -0.01815341 -0.013977722 0.031724
0001d0 22 e3 38 3e 36 04 c2 3e 05 58 c8 3e 46 75 f8 3e
       0.18055394 0.37893838 0.39129654 0.48526973
0001e0 5d 8a 2f 3d 13 80 07 3e 50 36 06 3e 8a b3 da 3e
       0.042856563 0.1323245 0.13106656 0.42715102
0001f0 e8 74 2a be b3 d9 3d 3e 84 05 d1 be 0f 0a be bd
       -0.16646159 0.18540077 -0.4082452 -0.09279262
000200 67 c7 f5 3d 32 ef ff 3e f2 ba c8 3c aa 96 87 be
       0.120009236 0.4998718 0.024503205 -0.26482135
000210 77 35 a0 3d 9d d5 c3 3d ea 5d 60 3e b8 25 cc be
       0.078226976 0.09562228 0.21910825 -0.39872527
000220 01 62 98 be bb 80 dd 3d 52 d5 84 3e 61 6c be 3d
       -0.2976227 0.10815569 0.25944 0.092980154
000230 a2 b1 db be 1a b1 27 be 7f 80 01 be 84 b2 98 3e
       -0.4290896 -0.16376153 -0.12646674 0.29823697
000240 8a a2 aa 3e 71 d1 d7 3e 6c b0 4c be 84 c6 fa 3c
       0.33327132 0.4215198 -0.19989175 0.030612238
000250 f3 07 e5 3e b3 80 a8 3e 99 58 2c 3e 34 72 ca 3e
       0.44732627 0.3291069 0.16830672 0.39540255
000260 97 9c 0c 3d 20 ab a5 3e 1c 00 88 3d 01 c1 c7 bd
       0.034329023 0.3235712 0.06640646 -0.097536094
000270 41 6b 85 3e 31 8f 03 3e 43 95 36 be 1f 50 a4 3e
       0.2605839 0.12847592 -0.17830376 0.32092378
000280 3a f3 0e be ea aa 29 3e cb 11 b1 3e a7 16 07 3e
       -0.13959971 0.16569105 0.34583887 0.13192235
000290 98 0e 5e 3e f4 26 d9 3d 3e 2e 74 3e bb d5 f9 3d
       0.21685255 0.10603133 0.23845765 0.12198969
0002a0 d6 1a 43 be 52 17 50 3d f9 34 dc 3e 44 76 ec 3e
       -0.19053206 0.05080349 0.43009165 0.4618398
0002b0 86 54 4c 3e ca a8 ac 3e b0 01 8d 3e 0a 4e 7d be
       0.19954118 0.33722526 0.2754035 -0.24736801
0002c0 9b b6 0c 3c 02 b8 1f be 4c 41 c4 3e b8 ba dc be
       0.008588458 -0.15597537 0.38331068 -0.43111205
0002d0 ad 7c 4d bd 8d ce 26 bd 40 25 89 3e f2 2e 82 3e
       -0.05016773 -0.040724326 0.26786232 0.2542644
0002e0 66 82 ca be 78 71 57 3e 37 0a d9 3e 8d 66 f3 be
       -0.3955261 0.21039379 0.42390606 -0.47539178
0002f0 58 f7 0e 3f 2c 6d e5 be 75 57 a6 be c6 2b b1 3d
       0.55846167 -0.44809854 -0.324886 0.08650927
000300 de fc 91 bd 69 2e 83 bd dc e1 f0 3d 14 16 91 be
       -0.07128309 -0.064053364 0.11761829 -0.28337157
000310 7f 00 2e be ec 72 73 3e d1 42 df 3d 26 07 87 3e
       -0.16992377 0.23774308 0.10901416 0.2637264
000320 ad 51 e8 3e 9d 03 a9 3e ce 28 ca 3c 84 ae d9 3c
       0.45374814 0.3301057 0.02467766 0.026572473
000330 28 81 1e be ae ea 19 bd dd a2 d8 3e c3 c3 44 be
       -0.15478957 -0.037577324 0.42311755 -0.19215302
000340 c9 d5 96 3e df 94 3f 3e 42 33 12 bd 7a f8 be be
       0.2945998 0.18709134 -0.035693415 -0.37298948
000350 2f 00 8b be 17 93 b9 3e 88 7a b9 3c 9d 68 ec 3e
       -0.27148578 0.36245033 0.022641435 0.46173564
000360 18 83 6f bd 95 0f 2f be f6 09 12 be ac b6 06 3e
       -0.05847463 -0.17095788 -0.14261612 0.13155621
000370 2e e1 26 be 44 83 b5 3c 1c 26 82 3e 1c a7 db 3e
       -0.16296837 0.022157319 0.254197 0.42900932
000380 fa 1a 31 be 2e 9d b3 3e d1 df c4 3d 9b 05 f3 bd
       -0.17295447 0.35080856 0.09613002 -0.118663035
000390 8d f2 b2 bd 04 98 38 3e 02 71 8d be 50 29 06 bd
       -0.08737669 0.1802674 -0.2762528 -0.032754242
0003a0 cc 89 e0 be d2 0c c0 3e ca 22 7e be 42 37 c8 3e
       -0.4385513 0.3750978 -0.24817958 0.39104658
0003b0 b2 b6 13 3e 8c f4 15 bd aa d6 4b 3e 25 5c 84 3e
       0.14425161 -0.03661017 0.19906107 0.2585155
0003c0 54 8e 9f be 52 cf 86 3e 5e 44 48 3d a5 e0 b4 3e
       -0.31163275 0.26330048 0.048893325 0.3532764
0003d0 69 45 23 be 85 05 50 be 16 6e cb 3d 8b b6 24 be
       -0.15944447 -0.20314606 0.099331066 -0.1608526
0003e0 85 d2 c7 be 28 d8 a5 3e 5a 04 e7 3e fc 7b 57 3e
       -0.390278 0.32391477 0.45120507 0.2104339
0003f0 5d 59 2b be 5d 86 96 be 58 57 83 3d 7a 89 b5 3e
       -0.16733308 -0.29399386 0.06413144 0.3545645

sequential/dense_1/MatMul_bias f4 [32]
000000 c5 17 d0 3c 9c b0 05 3e 26 a9 1c 3e 35 9f 29 3d
       0.02540196 0.13055652 0.152989 0.041411597
000010 c8 1e a5 3d 1e 1f e5 3d 3c 4d fd 3d aa 3c 97 3d
       0.08062512 0.11187576 0.12368247 0.073846176
000020 f0 68 07 3e e5 c0 36 3d e9 55 fa 3d 8f f0 c1 3d
       0.13223624 0.044617552 0.12223417 0.09469711
000030 e7 61 d9 3d ec 44 0e 3e e9 d0 e0 3d 77 65 1a 3e
       0.106143765 0.13893479 0.109773465 0.15077768
000040 3d 3f d8 3d 64 8c f8 3d 7c 2b 51 3d 53 af 83 3d
       0.10558937 0.121361524 0.05106686 0.06429925
000050 10 45 c1 3d 0c d3 95 3d 1f a6 68 3d 79 64 f8 3d
       0.09437001 0.073156446 0.05679905 0.12128539
000060 b1 ac 5a 3e 03 6b f3 3d 4e 63 c5 3d 4d 46 ea 3d
       0.21354939 0.11885645 0.096380815 0.1143919
000070 5a 4e 00 3e 8c e9 2b 3e 55 32 a0 3d 4a b5 44 3d
       0.12529889 0.1678831 0.078221 0.048024453

sequential/dense_2/MatMul/ReadVariableOp/transpose f4 [16, 32]
000000 d7 be 68 3e 72 00 88 3e 0c aa c3 3e 0a e2 b4 be
       0.2272905 0.2656284 0.38215673 -0.35328704
000010 6e 19 58 be ff 8d 11 3d 6d 71 9e 3a eb 7b 80 3e
       -0.2110345 0.03553581 0.0012088247 0.25094542
000020 38 a7 f8 3e 1b db f2 be d1 64 17 bd 4d 5f 0f be
       0.48565078 -0.4743279 -0.03696138 -0.14001198
000030 9b 4f b6 bd 6d a1 a9 bc fd e9 a5 be 2b 30 65 3e
       -0.08901902 -0.020706857 -0.3240508 0.22381656
000040 4a 50 cb be 54 58 c0 be ab 02 8f be ab ee cb 3d
       -0.39709693 -0.3756739 -0.27931723 0.09957632
000050 2b 0e 17 bd bd 44 8e be d1 1b 06 bf d2 76 c7 bd
       -0.036878746 -0.27786818 -0.52386194 -0.0973946
000060 cd b9 a3 3e a7 bc 07 3f fd 1f 10 3e 41 f9 4e 3c
       0.31977692 0.53022236 0.14074703 0.012632669
000070 61 ca ed 3e 07 de 9a 3e 9b 1f 18 3e 71 a2 41 be
       0.46443465 0.30247518 0.14855807 -0.18909623
000080 27 07 de 3e 9c 2e 72 be f1 14 aa 3e e8 b5 71 be
       0.43364832 -0.23650593 0.33219102 -0.23604548
000090 20 cd 98 be fa d2 8e bd 76 cb 18 3f 42 e9 d2 bd
       -0.29843998 -0.06973834 0.59685457 -0.10298397
0000a0 b9 d7 f1 3e 68 87 a4 3e 73 c2 08 3e 29 5c 94 3e
       0.47234896 0.32134557 0.13355426 0.28976563
0000b0 65 30 8f 3c cd 9d 0c be 9b 41 3a be 0c dd 15 3d
       0.017479131 -0.13732071 -0.18189089 0.03658776
0000c0 16 8d 31 bd 9b 44 55 3e 92 90 2e bf 90 51 a3 3e
       -0.04334744 0.20826952 -0.68189347 0.31898165
0000d0 81 d7 f4 be 8b 44 03 3e 95 24 ae be e9 86 a6 be
       -0.47820666 0.12819116 -0.34012285 -0.32524803
0000e0 bf ca 08 3f 7f 98 f7 3e 70 21 06 3f 43 63 8a be
       0.53434366 0.48358533 0.5239477 -0.27028856
0000f0 ac 3a 81 3d c4 f3 8e be 0b 0e 44 3e a8 95 2c 3b
       0.06310019 -0.27920353 0.19145982 0.002633432
000100 cb 19 fb be 38 9e 82 3d 6b 0c ba 3e b1 5d 0f bd
       -0.49043116 0.06377834 0.363376 -0.03500146
000110 c5 55 1b be 87 c6 25 3d 00 ff 0e 3f e4 12 98 be
       -0.15169437 0.040472534 0.5585785 -0.29701912
000120 ba 88 37 3e 4e 2c 62 3d f5 32 90 3e 32 c7 89 be
       0.17923251 0.055218033 0.28163877 -0.26909786
000130 36 02 15 3f 5d 2b c3 bd 47 24 8f 3e b1 50 44 3e
       0.582065 -0.09529755 0.27957365 0.19171406
000140 53 10 94 3e a1 4f f6 bd b7 4f fd be bb 87 1e 3f
       0.28918704 -0.12026907 -0.4947488 0.6192586
000150 9b 16 6a 3e 42 99 0b 3f ac a6 e4 3e 3f 60 d5 3e
       0.22860186 0.5453073 0.4465841 0.41674992
000160 51 4d 5f 3e 5f c9 2c be 40 3f 98 be c4 8e b9 be
       0.21806838 -0.16873692 -0.29735756 -0.36241734
000170 dd fa a5 3e 7c 11 fa be d4 c9 c5 bd 0d 92 e6 3b
       0.32417956 -0.48841465 -0.09657636 0.0070364536
000180 30 73 3f be d2 c6 00 bf e3 a3 6b 3e f2 4d 02 bf
       -0.18696284 -0.50303376 0.23011737 -0.50900185
000190 c9 89 fb bd 40 6b 83 3d 91 03 19 bf 67 7a 0f 3e
       -0.1228214 0.06416941 -0.59771067 0.14011537
0001a0 52 6c bc 3d ab e9 79 be c9 6e 0e 3f 6b b3 08 3f
       0.09200348 -0.24405544 0.55637795 0.5339877
0001b0 b6 84 60 3e 00 36 96 3e 80 fd b3 3e f0 2a d6 be
       0.21925625 0.29338074 0.35154343 -0.41829634
0001c0 f6 7f 14 be 6a 92 d7 be d7 f1 42 3d f8 ec cc 3e
       -0.14501938 -0.42103893 0.047593918 0.40024543
0001d0 55 57 1b 3f 4a f2 76 3e 16 d0 9c be be 77 24 3e
       0.60680133 0.24115863 -0.30627507 0.16061303
0001e0 fd 4e fa 3e 14 96 9d 3e 8d 7a 14 3d ba c7 c9 3e
       0.48888388 0.30778563 0.036249686 0.39410192
0001f0 f1 dc 83 be 5e 45 c2 3e b5 b8 63 bd ac 7b 05 3d
       -0.25754502 0.37943548 -0.055596072 0.032588646
000200 ac a2 8d 3e 2e 58 d0 3e 20 36 f1 be 58 5a 73 3c
       0.2766317 0.40692276 -0.47111607 0.014853083
000210 b3 93 38 3e 6b 90 42 3e 75 04 3f 3c 2d 0b cd 3e
       0.18025093 0.19000404 0.0116587775 0.4004759
000220 42 85 c8 3e 5a 60 92 3e cf 5d c0 3e 8b 81 15 bf
       0.39164168 0.28589135 0.3757157 -0.5840079
000230 87 00 7e 3e d7 68 10 3e 45 62 be be 8b f1 8b be
       0.24804889 0.14102493 -0.3718435 -0.2733272
000240 3a f7 f1 3e 44 6e 42 3e 73 e3 22 3f 44 f7 f1 bd
       0.4725893 0.18987375 0.6362831 -0.1181474
000250 77 6d 72 3d 0f 56 05 bf d6 78 db 3e 1a c8 05 3f
       0.059186425 -0.5208444 0.42865628 0.52258456
000260 84 ea 70 be e9 17 ec 3e 95 66 ca be 92 08 d0 be
       -0.2352696 0.46111992 -0.3953139 -0.4063154
000270 ff dc e3 3e c6 19 c3 be 1a a1 4a 3e fb 80 fe 3e
       0.44504544 -0.381056 0.19788018 0.4970778
000280 ea df e1 3e 08 65 49 bd 1d 71 ec be 93 6d 6f 3e
       0.44116145 -0.049168617 -0.4618005 0.23381643
000290 11 cf fa be bd 6d 40 be 0a 77 36 be 73 29 95 3e
       -0.48986104 -0.18791862 -0.17818847 0.29133186
0002a0 1d cd 40 bd c8 00 24 3e 73 6f 1f be b8 13 eb be
       -0.04707061 0.16015923 -0.15569858 -0.45913482
0002b0 27 90 7f 3e 9d 95 be 3e 25 99 39 3c af e6 34 3f
       0.24957334 0.3722352 0.011328016 0.70664495
0002c0 70 67 02 bf 82 3c a5 be 1a db b0 3d 2c af 16 3f
       -0.50939083 -0.32272726 0.0863554 0.5886104
0002d0 a5 cb 5b 3e f7 c7 bc 3e 56 95 46 3e ab 84 d6 be
       0.21464403 0.3687131 0.19392905 -0.41898093
0002e0 a2 df 14 3e b8 6a 01 3e 2b 2c a1 be 0d 32 24 3f
       0.14538434 0.12638366 -0.3147901 0.6413887
0002f0 87 a7 df 3d d4 d1 09 3f cf f1 a0 bd 5c 32 0a bf
       0.10920625 0.538358 -0.07858621 -0.5398309
000300 77 7b e3 be 2e 9e 98 3e f7 02 06 be 88 74 84 3e
       -0.44430134 0.29808182 -0.13087068 0.25870156
000310 da 36 01 bf b4 7f f5 be 36 b1 b2 be 96 72 8a 3e
       -0.5047432 -0.47948992 -0.34900826 0.27040547
000320 08 a6 6e 3e cf 1c 7a 3e 9e 82 17 3b 9d ff 42 3e
       0.23305523 0.24425052 0.0023118625 0.19042821
000330 96 39 04 bf a4 5c 9d be b3 59 29 bf 25 36 ab 3e
       -0.5165037 -0.30734742 -0.66152495 0.33439746
000340 bd 49 62 be 45 b5 48 be e7 db d9 bd 62 4d 3c 3e
       -0.22098441 -0.19600399 -0.10637646 0.18388894
000350 b1 5f c4 3e d6 07 a7 3e 1d 1c bb 3e d9 2f 0e 3e
       0.38354257 0.32623166 0.36544886 0.1388544
000360 b3 26 04 be d9 e6 a3 3e 35 7f 8e be 1e b4 8e 3e
       -0.12905388 0.3201206 -0.27831426 0.27871794
000370 e6 b3 55 3e 0a e7 49 3e 21 27 e8 be df 84 dd 3e
       0.20869407 0.1971704 -0.45342353 0.43265435
000380 fe e5 fd be 26 e3 37 3e 1a 3a 98 3e ea d2 5d be
       -0.49589533 0.17957744 0.29731828 -0.21662489
000390 7a c4 98 be 9e ca bf 3d 73 15 44 be 86 c0 10 3f
       -0.298374 0.09364818 -0.19148807 0.5654377
0003a0 0e 54 c9 3d 84 67 ab bb 21 06 e4 3e 18 a7 1f bf
       0.09830485 -0.005230846 0.44535926 -0.6236434
0003b0 f6 8c 18 3e 56 eb 0d 3d 36 06 da be 1c fb 20 be
       0.14897522 0.034648262 -0.42582864 -0.1572079
0003c0 49 d0 79 bd 8a cc 96 3d 9e 8b b9 bd d2 13 12 3f
       -0.06098965 0.073632315 -0.09059833 0.57061493
0003d0 42 18 e7 3e 85 1b b2 3d 16 6f 8b be ac c8 4d be
       0.45135695 0.08696655 -0.2723319 -0.20096081
0003e0 6d 63 3b be 1e a5 8c 3e 56 e2 54 3e 78 5d 06 3f
       -0.18299647 0.27469724 0.20789465 0.5248637
0003f0 58 9d 93 3e 74 6e 9c be 88 b9 b5 3e b6 16 ca be
       0.2883098 -0.3055302 0.35493112 -0.39470452

sequential/dense_2/MatMul_bias f4 [16]
000000 71 e2 b3 3d e1 2b 3d 3d 03 38 f5 bc 60 81 d0 3d
       0.08783425 0.046184424 -0.029933935 0.10180926
000010 a0 e9 97 3c b3 45 ba ba 08 12 ff bc 74 1c 24 3d
       0.018544018 -0.0014211446 -0.031136528 0.040066198
000020 1c 95 f3 3c aa 22 c7 3d b4 85 95 3d be d3 22 3d
       0.029734187 0.097234085 0.073008925 0.039752714
000030 71 f3 a7 3d 8b 9e dd 3d 05 1a 94 3d 82 0d 35 bc
       0.0820073 0.10821255 0.07231525 -0.011050584

sequential/dense_3/MatMul/ReadVariableOp/transpose f4 [41, 16]
000000 8b c8 0e 3e 21 23 e5 3e 1f a4 b9 3d 3a 50 bd be
       0.13943689 0.44753364 0.09064507 -0.3697527
000010 77 98 be be 02 d8 1c 3e 75 3d 7f be 22 bb a3 be
       -0.37225696 0.15316775 -0.24925788 -0.31978709
000020 ef 78 a0 3e 7f e1 54 3e bf 50 1c bf e1 17 3c bf
       0.31342265 0.20789145 -0.6106071 -0.73473936
000030 77 62 52 3e d2 77 21 be bf cb 03 3e ba 15 82 be
       0.20545374 -0.15768364 0.12870692 -0.254072
000040 26 45 da 3e c6 73 b6 3e cb fd 0d bf 67 27 2a bd
       0.4263088 0.35635203 -0.5546538 -0.041541483
000050 b4 12 b5 3d a3 b4 48 3e dd 07 d9 be 61 9d ff 3d
       0.08841458 0.19600157 -0.42388812 0.124811895
000060 04 98 ed be 1e 4d 13 bf 6a 7f 55 bf 20 3b 9e be
       -0.4640504 -0.57539546 -0.83397543 -0.30904484
000070 d3 19 66 3e 39 55 23 3e eb 56 67 3e ac 56 be be
       0.22470789 0.15950479 0.2259175 -0.371755
000080 21 30 79 3e 06 a9 71 be 0f 76 19 bf 29 3d e5 3e
       0.24334766 -0.23599634 -0.5994577 0.44773224
000090 f7 39 b4 be 8e 63 9c 3d d2 90 d9 be bc 51 3e be
       -0.35200474 0.07636176 -0.42493302 -0.18585867
0000a0 6f 93 3f bf b9 eb 17 bf 23 4e d2 3e 98 19 ac be
       -0.7483434 -0.5934406 0.4107524 -0.33613276
0000b0 c1 7d 17 3e ab 7a b5 3d a4 9d f6 bd 36 10 e2 bd
       0.14794065 0.08861288 -0.12041786 -0.11038248
0000c0 8f cf 05 bd fa f7 de be ed 67 82 bd 49 e6 a1 bc
       -0.032668646 -0.43548566 -0.063674785 -0.019763129
0000d0 e1 3f 8a 3e 1f 5c 49 be f8 3e 01 bf 12 a8 0f 3e
       0.2700186 -0.19664048 -0.5048671 0.14028957
0000e0 8e ed 15 be e1 8b ed 3d b2 39 22 bf 0b 84 88 be
       -0.14641401 0.115989454 -0.63369286 -0.2666324
0000f0 42 bc 9f 3e 26 e1 e3 be f8 9f 3d be ef d0 74 3e
       0.31198317 -0.44507712 -0.18518054 0.23907827
000100 c9 80 8b be 85 88 fd be f2 a7 cb 3e ee b8 0a 3d
       -0.27246693 -0.4951822 0.3977657 0.03386777
000110 cb eb c7 bd 4d 39 53 be f5 c5 03 bf 78 31 54 be
       -0.09761771 -0.20627327 -0.51473933 -0.20721996
000120 19 08 d0 3e 56 c1 da 3e 9b 24 40 bf 45 fb a7 3d
       0.40631178 0.4272563 -0.75055856 0.08202223
000130 6d 19 21 bf db 82 63 3d 55 67 78 be df 55 57 be
       -0.6292942 0.055544715 -0.24258168 -0.21028851
000140 b6 ad aa be 77 86 01 bf bd 70 f6 be 13 78 e9 3e
       -0.33335656 -0.505958 -0.48132887 0.45599422
000150 fc 7c 52 be 50 97 a8 be 7f 03 df be 1f f1 04 bf
       -0.2055549 -0.32927942 -0.43557355 -0.5193042
000160 9b fd 18 3d 5f 4f 2e be 9b 5b cc be d9 11 91 be
       0.037351232 -0.17022465 -0.3991364 -0.2833393
000170 6f c7 85 3e 1a e1 a0 3e 49 b8 8e be 0e 01 71 3d
       0.26128718 0.3142174 -0.27874973 0.058838896
000180 92 20 98 3d 7b 68 1e be d4 69 bd be 97 7c ae 3e
       0.07428087 -0.15469544 -0.36994803 0.3407943
000190 3d 28 65 3d 4f 34 02 bf 4a f8 a9 be c2 21 8b be
       0.055946577 -0.50861067 -0.33197242 -0.27174193
0001a0 26 97 e6 3e b4 08 1d bf b9 3f ce be 63 6e c7 3e
       0.45037192 -0.61341405 -0.40282992 0.38951406
0001b0 d4 80 e2 be 90 ae ea be e2 38 d8 be 36 72 14 3e
       -0.44238913 -0.45836306 -0.42230898 0.14496693
0001c0 26 c6 ac be ba 5b 99 be e7 61 e9 3d 1b 32 3f 3e
       -0.33744925 -0.29952794 0.113956265 0.18671457
0001d0 6e e2 ef be 02 fd e1 be 2f 64 fb be 65 2f 05 3e
       -0.4685244 -0.44138342 -0.49099872 0.13006361
0001e0 e8 28 e6 3d 3b 73 b1 be 49 ec 04 3f 0c 2c 64 be
       0.11238271 -0.34658226 0.5192304 -0.22282428
0001f0 44 95 12 bf 48 c9 76 be 7d 79 84 3e 1e bd ca be
       -0.5725901 -0.2410022 0.25873938 -0.3959741
000200 dd 74 24 bf 29 32 e2 be 6e c8 af 3d cd 0e 2b bf
       -0.6424082 -0.44178894 0.08583151 -0.6681946
000210 a6 2b e0 3e 6d 48 a8 be f0 c4 f7 3c 51 87 03 bf
       0.437833 -0.32867756 0.030245274 -0.5137835
000220 c2 77 e0 bd 2b fb bd 3d 0d 3c 49 be 34 5b 13 3e
       -0.10960342 0.09276422 -0.19651814 0.1439026
000230 d3 f9 d8 be e8 d5 5a be 2a b5 2f bd 6d be ba 3e
       -0.423781 -0.21370661 -0.04289738 0.36473408
000240 7f d1 0b be b2 09 08 be 59 68 9d be 0e 7f f3 be
       -0.13654135 -0.13284948 -0.30743673 -0.47557873
000250 a2 fb 89 3e bb 91 a1 be aa e5 2d 3e bd 44 1d bd
       0.26949793 -0.31556496 0.16982141 -0.038395632
000260 70 f0 28 bf 81 8e df 3e 77 c2 8d 3e ee b2 36 3e
       -0.6599188 0.4366341 0.27687427 0.17841694
000270 04 9e f3 bd b3 53 a8 be 96 6a 37 3d b1 c8 53 3e
       -0.118953735 -0.32876357 0.044779383 0.20682026
000280 70 01 bb be fa 2d 03 bf f2 8c 98 be e2 31 b0 be
       -0.36524534 -0.5124203 -0.29795033 -0.34413058
000290 61 4c 33 3e 19 b0 b3 3e 7a 7c 66 3e 02 6e b6 3d
       0.17509605 0.3509529 0.22508422 0.08907701
0002a0 ed da cb bc 95 ed 59 3e 6f ad 6e 3b ee d5 d0 3d
       -0.024884665 0.21282037 0.0036419292 0.10197054
0002b0 2f 7b e0 be 83 e6 87 be 92 13 ee be ab 57 85 3c
       -0.43843982 -0.26543054 -0.46499306 0.016277155
0002c0 77 69 9b be a1 eb 97 be 32 1d bc be 0d 23 56 3e
       -0.303539 -0.29671958 -0.36741024 0.20911808
0002d0 fc 4f 15 be 23 52 d7 3e a0 3e b1 bb 98 0f b7 3e
       -0.14581293 0.42054853 -0.005409077 0.35754085
0002e0 9d c2 87 3e 8f 58 06 bf 80 a9 54 be 44 37 09 bf
       0.26515666 -0.5247888 -0.20767784 -0.53599954
0002f0 5b 4f 19 bf 52 ec 32 3e de 30 2f be 9c 28 b5 be
       -0.5988671 0.17472962 -0.17108485 -0.35382545
000300 9e 85 2a ba e8 df bb be 49 00 5b 3e 83 56 4b 3e
       -0.0006504896 -0.36694264 0.21386828 0.1985722
000310 45 3e 0f bf e5 56 bb 3e f8 e6 db bd 5a d5 bb bd
       -0.5595439 0.36589733 -0.10737413 -0.09171553
000320 aa 7c 94 3e dd ab f2 bd c1 ba f1 be 2f eb 6b be
       0.2900136 -0.118491866 -0.47212794 -0.23038934
000330 05 3d b6 be be 06 08 bf 70 f0 c6 bd a8 7b 81 3d
       -0.3559343 -0.5313529 -0.097138286 0.06322414
000340 e8 5f 5e be b3 1c b3 be ae 1f 99 3d 4d 3a 76 bd
       -0.21716273 -0.34982833 0.074767455 -0.060114194
000350 61 4e e4 3e a2 f5 32 bf 86 92 c2 be 4b 16 2c 3e
       0.44591048 -0.69906056 -0.38002414 0.16805379
000360 97 ae e5 be 70 0b 12 bf f1 3d 22 3d d7 b9 e9 be
       -0.44859764 -0.570487 0.039609853 -0.45649597
000370 f3 97 a1 3d 86 91 6f 3e 46 7a 73 3e fe a1 d4 be
       0.0789031 0.23395357 0.23777112 -0.4152984
000380 0c 58 7e be 21 dd 45 be ec 9a 6f bd a6 0f 2a bf
       -0.24838275 -0.19322635 -0.058497354 -0.6643013
000390 64 af 92 3e 5c b1 1c bf e9 c8 05 bf e0 5a cf be
       0.28649437 -0.6120813 -0.5225969 -0.4049902
0003a0 fc 02 54 3e 8c 5a a2 3e 89 f8 46 3d 58 53 23 bf
       0.20704263 0.31709707 0.048576865 -0.6379905
0003b0 54 b0 b0 3d 9b ee d1 be 4b 96 9f 3e 1e 5c e6 be
       0.08627382 -0.41002354 0.31169352 -0.44992155
0003c0 fa e9 bc be 9d a4 d7 bd 25 ab 18 bf 40 e2 be be
       -0.3689726 -0.10529444 -0.59636146 -0.3728199
0003d0 83 a5 ed 3e 38 6b 51 3e 09 16 8f 3e f8 73 10 be
       0.46415338 0.20451057 0.279465 -0.14106739
0003e0 a6 2c cd be 35 32 f2 be df 89 29 3e f3 84 0f bf
       -0.40073127 -0.4730393 0.165565 -0.5606224
0003f0 ac 43 74 be b5 1d cd be 93 1c e5 3e 8b e5 fd be
       -0.2385394 -0.40061727 0.44748363 -0.4958919

sequential/dense_3/MatMul_bias f4 [41]
000000 db cd 52 bd bc a8 6a 3d a0 ae 45 3d fb 54 03 be
       -0.05146585 0.057289824 0.04826224 -0.12825386
000010 d4 10 8c 3d 34 13 43 3e 48 09 5f 3d ad 38 f6 3d
       0.06839147 0.19050294 0.05445221 0.12022529
000020 2b 79 ed 3d 87 9d e3 bd 87 2b 8f bd 14 dd 4f 3d
       0.115953766 -0.1111403 -0.06990724 0.050747946
000030 ef 22 96 bd 5d da a3 3c dc 6c 16 bc 25 d5 42 3d
       -0.07330882 0.020001585 -0.009181228 0.04756655
000040 2e e2 98 bd 54 8d 5e bc fb 70 4e 3d f4 c7 b0 bd
       -0.07465015 -0.0135835 0.050400715 -0.08631888
000050 00 fe 54 bc 47 13 c1 bd f6 35 1e bd 15 a6 14 3e
       -0.013000011 -0.09427505 -0.03862568 0.1451648
000060 83 29 2f 3c a3 15 f0 bd 5a 02 d5 ba 62 da 8f bc
       0.0106910495 -0.11722877 -0.0016251311 -0.017560188
000070 16 59 c6 3c 02 69 67 bd 66 fb f8 3c d7 4e 8e bd
       0.024212401 -0.056496628 0.030393314 -0.06948631
000080 5a 1b de bc 5a 5d aa bd 5c 97 7e 3a 10 e5 42 bd
       -0.027112652 -0.08318587 0.00097118854 -0.047581732
000090 c8 2c 58 bd 8e 00 3c bd f0 3f d2 3d 38 ab ba 3c
       -0.05277708 -0.045898966 0.10266101 0.022786722
0000a0 ed 7d ab bd
       -0.08373628
